Pytorch/cnn_mnist.pth (torch, 5788 bytes, 6 tensors)

conv1.weight f4 [3, 1, 5, 5]
-0.06313686 0.27766007 0.24421948 -0.24880569 -0.12555261 0.24200466 0.19603783 0.100182556
-0.08467249 -0.09684124 0.38731527 0.55311656 0.2720996 0.20395163 -0.22759853 -0.047655504
0.3019457 0.09471488 0.0027171401 0.021850096 -0.03869727 -0.07773422 0.34702134 0.2893017
0.30283794 -0.38322464 0.02645731 -0.11890768 0.20351626 0.15840632 -0.16809855 0.034070138
0.2735667 0.186037 0.24541984 -0.2389188 0.0194447 0.20464933 0.11901371 -0.06784657
0.10293861 0.39319512 0.24834976 0.2699172 0.0702675 0.07913914 0.27231276 0.13187562
-0.06037011 -0.32642716 0.07560185 -0.37889645 -0.44667876 -0.33236638 -0.025369996 0.12925895
0.082013115 -0.28662983 -0.39039555 -0.43563646 0.28075433 0.27444887 0.3341364 -0.057246882
0.23850797 0.06984986 0.3853469 0.5612197 0.55556333 0.11181118 -0.06576294 -0.097521335
0.14566886 0.0463074 0.07290847
00000000: e64d 81bd 7629 8e3e ac14 7a3e ebc6 7ebe
00000010: dd90 00be 12d0 773e 24be 483e 832c cd3d
00000020: c568 adbd b354 c6bd 304e c63e 0c99 0d3f
00000030: a450 8b3e b2d8 503e 970f 69be 6b32 43bd
00000040: a098 9a3e e0f9 c13d 0c12 323b f9fe b23c
00000050: 0781 1ebd 1e33 9fbd c8ac b13e 5a1f 943e
00000060: 930d 9b3e 0536 c4be 00bd d83c df85 f3bd
00000070: 9166 503e 4435 223e 0722 2cbe 218d 0b3d
00000080: ef10 8c3e 7c80 3e3e 574f 7b3e 21a7 74be
00000090: 7e4a 9f3c 988f 513e 76bd f33d 24f3 8abd
000000a0: 7ad1 d23d df50 c93e 664f 7e3e 9632 8a3e
000000b0: 68e8 8f3d b413 a23d 946c 8b3e 670a 073e
000000c0: a646 77bd 7621 a7be 25d5 9a3d b7fe c1be
000000d0: 14b3 e4be ed2b aabe bdd4 cfbc 755c 043e
000000e0: 7ef6 a73d 25c1 92be ede1 c7be be0b dfbe
000000f0: 08bf 8f3e 9084 8c3e ed13 ab3e b57b 6abd
00000100: 6f3b 743e 720d 8f3d 304c c53e 18ac 0f3f
00000110: 6639 0e3f 43fd e43d b8ae 86bd 44b9 c7bd
00000120: 382a 153e d4ac 3d3d 0951 953d

conv1.bias f4 [3]
0.26704514 -0.03577074 -0.05125368
00000000: 24ba 883e 5784 12bd 61ef 51bd

conv2.weight f4 [3, 3, 5, 5]
-0.24624008 -0.28040642 -0.1380739 -0.07494162 -0.15448664 0.055423364 -0.19627361 -0.21205518
-0.16820467 -0.085313335 0.03192467 0.09603959 0.21608824 0.11745614 0.052950177 0.13786575
-0.03139745 0.09309945 0.13224137 0.031698022 0.051764566 -0.12266109 -0.07626239 0.09178963
0.019379681 -0.04634775 -0.091727875 -0.0907785 -0.15700302 -0.12335897 -0.026464041 -0.19707978
-0.2544374 -0.19900812 -0.2556084 -0.043374352 -0.021969706 -0.100405335 -0.21028116 -0.07815909
0.014485622 -0.06785299 -0.18285535 0.031483907 0.115073636 -0.0034304126 0.06705034 0.09914123
0.048102677 0.13405865 0.023257548 -0.12915023 -0.070635036 -0.086077996 -0.20876722 0.25486892
0.2563335 0.23579313 0.13801903 0.064969175 0.20875989 0.32861307 0.2823036 0.28387755
0.30947998 0.14238796 0.18227129 0.21788867 0.20583557 0.095419124 0.09953474 0.048996236
0.095458284 0.15673739 -0.20529792 0.35896793 0.17535812 0.039142217 -0.044927 -0.13324255
0.5625471 0.3179086 0.14992936 -0.05213255 -0.003047922 0.5468422 0.16074859 0.10412815
-0.0539918 -0.06192325 0.07824166 0.10359359 -0.035601113 0.018994318 -0.07039231 -0.13181315
-0.10326999 0.0062404214 0.028940428 -0.061691105 0.26060894 0.12254126 0.09191175 -0.018481907
-0.082623124 0.24705964 -0.03944986 -0.121753134 -0.07489038 -0.25334427 -0.10383795 -0.09157081
-0.1553045 -0.15999115 -0.19588813 -0.18185093 -0.17234984 -0.029601315 -0.15081331 -0.16685928
0.026993819 -0.108413786 -0.05171106 -0.028374027 -0.013397152 -0.28704217 -0.12298876 -0.06347359
-0.0019517075 0.13769303 -0.17174101 0.02305878 -0.030617572 0.104481645 -0.030307092 0.060839746
0.16594806 0.1174723 0.0015838742 0.033527244 0.18410245 0.124361895 0.1337957 -0.041225247
-0.008330251 -0.0042101867 -0.03673985 -0.056624368 -0.13311073 -0.11323209 0.115005486 -0.023403335
-0.071011364 -0.13777748 0.07448583 0.03633899 -0.053175036 9.381967e-05 -0.13512237 -0.020813277
-0.044747885 0.09871957 0.17779222 0.041099384 0.11979045 -0.06936249 0.05021564 0.2602166
0.2081275 0.057230063 0.04541651 -0.04185132 0.02953571 0.1403381 0.2821361 0.0024033452
0.005757426 -0.08358525 0.05022512 0.017892499 -0.03270291 0.06188424 0.051482067 0.00044366292
0.07246002 -0.10203458 0.020038368 -0.075589396 -0.063388705 -0.10383386 -0.023632994 0.04099329
-0.12951696 -0.14953926 -0.18010983 0.0037629353 -0.047349047 -0.17065477 -0.177336 -0.020682655
-0.09177014 0.027397774 -0.018338762 0.17033471 0.18395758 -0.048531365 -0.11284568 0.037330255
0.1631834 0.16856377 0.038767647 -0.0897452 0.10291549 0.18549664 0.2820017 -0.035790656
0.0064111315 0.100447595 0.29440632 0.35797635 0.11910211 0.06380832 0.18923353 0.3128177
0.42495227
00000000: 5c26 7cbe 6e91 8fbe 3f63 0dbe fe7a 99bd
00000010: bf31 1ebe 9c03 633d f3fb 48be fe24 59be
00000020: d83d 2cbe c2b8 aebd 71c3 023d 68b0 c43d
00000030: 3c46 5d3e d88c f03d 49e2 583d ae2c 0d3e
00000040: 9d9a 00bd edaa be3d 486a 073e c9d5 013d
00000050: 1507 543d bd35 fbbd 752f 9cbd 34fc bb3d
00000060: 23c2 9e3c 23d7 3dbd d3db bbbd 14ea b9bd
00000070: 66c5 20be a1a3 fcbd 1ecb d8bc 48cf 49be
00000080: 9e45 82be c9c8 4bbe 1bdf 82be 4ea9 31bd
00000090: d0f9 b3bc 50a1 cdbd f253 57be df11 a0bd
000000a0: 1a55 6d3c 82f6 8abd 6f3e 3bbe 45f5 003d
000000b0: baab eb3d c6d0 60bb b051 893d 8f0a cb3d
000000c0: 5007 453d ac46 093e 9d86 be3c f53f 04be
000000d0: 1aa9 90bd a949 b0bd 13c7 55be 2e7e 823e
000000e0: 253e 833e c173 713e dc54 0d3e 8f0e 853d
000000f0: 27c5 553e f93f a83e 198a 903e 6658 913e
00000100: 2974 9e3e 26ce 113e 53a5 3a3e 351e 5f3e
00000110: 8fc6 523e 1a6b c33d dfd8 cb3d 47b0 483d
00000120: a27f c33d c47f 203e 9e39 52be a5ca b73e
00000130: 1491 333e 9753 203d 6005 38bd bc70 08be
00000140: 1603 103f ebc4 a23e 1587 193e f188 55bd
00000150: a5bf 47bb dafd 0b3f 479b 243e 2441 d53d
00000160: 8126 5dbd 3ca3 7dbd 2a3d a03d e028 d43d
00000170: 79d2 11bd f999 9b3c d829 90bd 07fa 06be
00000180: 377f d3bd 737c cc3b 7a14 ed3c d0af 7cbd
00000190: 896e 853e eaf6 fa3d 3a3c bc3d 5e67 97bc
000001a0: 5036 a9bd 34fd 7c3e 2d96 21bd b559 f9bd
000001b0: 2160 99bd 57b6 81be fea8 d4bd 7a89 bbbd
000001c0: 2508 1fbe b8d4 23be e696 48be 2137 3abe
000001d0: 7a7c 30be 757e f2bc ce6e 1abe 29dd 2abe
000001e0: 2422 dd3c 0c08 debd face 53bd a670 e8bc
000001f0: ba7f 5bbc 31f7 92be 88e1 fbbd 71fe 81bd
00000200: 70d0 ffba 67ff 0c3e e0dc 2fbe c4e5 bc3c
00000210: b4d1 fabc 79fa d53d 9446 f8bc 1933 793d
00000220: 4aee 293e 5195 f03d 009a cf3a dd53 093d
00000230: 5a85 3c3e 73b1 fe3d bd01 093e cedb 28bd
00000240: 9b7b 08bc 9bf5 89bb 867c 16bd f4ee 67bd
00000250: 2e4e 08be 3ae6 e7bd ff87 eb3d 5ab8 bfbc
00000260: 686e 91bd 8a15 0dbe 078c 983d 31d8 143d
00000270: 11ce 59bd 0dc1 c438 855d 0abe 9b80 aabc
00000280: 8f49 37bd 7c2d ca3d 2a0f 363e d457 283d
00000290: b254 f53d ec0d 8ebd eaae 4d3d 1c3b 853e
000002a0: 601f 553e 126a 6a3d aa06 3a3d 4a6c 2bbd
000002b0: e0f4 f13c cab4 0f3e 2574 903e 7181 1d3b
000002c0: caa8 bc3b be2e abbd dbb8 4d3d 4a93 923c
000002d0: 7df3 05bd 547a 7d3d dcde 523d 6e9b e839
000002e0: eb65 943d 82f7 d0bd 8127 a43c 9dce 9abd
000002f0: f0d1 81bd d9a6 d4bd fb99 c1bc 94e8 273d
00000300: 18a0 04be d220 19be b66e 38be 949b 763b
00000310: 13f1 41bd 20c0 2ebe 9297 35be ac6e a9bc
00000320: fcf1 bbbd 4c71 e03c 2c3b 96bc 396c 2e3e
00000330: 605f 3c3e d3c8 46bd a31b e7bd 9ce7 183d
00000340: 8d19 273e fb9b 2c3e d3ca 1e3d 55cc b7bd
00000350: 5bc5 d23d d5f2 3d3e 8762 903e 3999 12bd
00000360: 7814 d23b 78b7 cd3d 6dbc 963e ad48 b73e
00000370: cfeb f33d f0ad 823d 6fc6 413e a429 a03e
00000380: 5893 d93e

conv2.bias f4 [3]
0.11118933 0.122530036 -0.10094185
00000000: 3bb7 e33d 07f1 fa3d 9aba cebd

fc_1.weight f4 [10, 48]
0.13451006 -0.036440723 0.06036474 -0.01274596 0.07263327 -0.12832482 -0.08358694 -0.09866796
-0.2112321 -0.009317755 0.15404886 -0.15902403 -0.19962627 0.20779717 -0.104219 -0.12770785
-0.12847196 0.06351266 0.113821365 0.13569738 -0.032046113 0.041980498 0.025929745 -0.13150276
-0.050921213 0.022455726 0.043005183 -0.20788063 0.11832879 0.18542144 0.13114521 -0.014311415
-0.1528648 0.0019471097 0.12623109 0.23075378 -0.0931213 -0.14670022 -0.09665969 0.021452881
0.08536288 0.0365525 -0.010989289 0.19350518 0.17860919 0.028147973 -0.045303445 -0.13675208
-0.05705131 0.08451906 -0.1403687 -0.08358908 0.14012651 0.11403806 -0.056935742 0.16395786
0.21546474 -0.084102504 0.024147611 0.102265045 0.19748783 -0.03100163 0.04178953 0.167401
-0.10284032 0.037263777 0.20569094 -0.10106075 -0.028434627 0.019101601 -0.014853589 0.33775258
-0.072429545 -0.09353923 0.1426737 0.22983733 -0.050511606 0.13136895 0.056827 0.2522136
0.01837348 -0.025228083 -0.12591326 0.03726869 -0.3130782 -0.34267458 -0.12384805 -0.31332064
-0.21404392 0.009976156 -0.07382907 0.027360797 -0.17662618 -0.09299164 0.027193416 0.07786789
0.08845885 -0.05301735 0.08309575 -0.030927451 0.20078994 0.092523634 0.009835042 0.06918996
0.24069719 0.036106195 0.16417512 0.09294999 -0.082934104 -0.042774767 0.05498725 0.24684729
0.014691575 0.17662565 0.22737196 0.22035494 -0.14226386 -0.24760759 -0.21340859 -0.25755304
-0.14062682 -0.24022813 -0.22695406 -0.02998485 0.11186666 0.1910579 0.2836294 0.07012934
0.14721474 0.06363776 -0.0445591 -0.019924114 -0.15659355 -0.096880935 -0.14646974 0.17222098
-0.13524513 0.03967428 0.064682215 0.19393007 0.17658402 -0.1112145 -0.007696338 0.13872047
-0.09300605 0.086971834 0.02019419 0.07754822 0.031841822 0.06319075 -0.01077879 0.09403606
0.16556081 -0.1338356 -0.00023946026 0.115784645 0.29620406 0.19544843 -0.014091123 -0.053338975
0.01571035 0.17617555 0.020713484 0.07621894 -0.051719204 -0.42181155 -0.3339588 0.16182464
-0.062256068 -0.21783571 0.10243332 0.03414676 -0.009116242 -0.21482503 -0.29045236 -0.30732113
0.07047699 0.038353804 -0.020610902 -0.04266485 0.1597987 0.0013478284 -0.03120448 -0.0082471045
-0.06186744 0.28799132 0.22453175 0.013140077 0.20453086 -0.043296125 0.05215626 0.0017465134
-0.003932157 -0.21802177 0.018632004 -0.27779037 0.06209869 -0.07532763 0.06271123 -0.20596458
-0.060344964 0.13727184 -0.055006653 -0.1959743 0.016934581 -0.110042214 0.0155443195 -0.1253902
0.0973207 0.07559871 -0.063745394 -0.28589204 0.0004702608 0.034076188 0.23226225 0.10511333
0.045515046 0.19537283 0.09912979 0.27572453 0.06373011 0.07075091 -0.21325716 0.23856829
0.1202155 -0.13228695 -0.10381614 -0.03319949 0.2996445 0.14080928 0.0027995368 0.34298605
0.0115111265 -0.122191295 -0.18190749 0.08544837 -0.32955995 -0.06692389 0.04896587 -0.052938513
-0.08083404 0.011760204 0.08981487 0.0109925 0.024192035 -0.10483096 0.10244583 0.11605149
0.18636926 -0.03394338 0.045763884 0.33144242 0.34656736 0.12009675 -0.045488898 0.141956
00000000: 01bd 093e de42 15bd 0541 773d 6ed4 50bc
00000010: c0c0 943d 9567 03be a12f abbd 6d12 cabd
00000020: 3a4d 58be 7fa9 18bc fcbe 1d3e 32d7 22be
00000030: d46a 4cbe c8c8 543e c570 d5bd d9c5 02be
00000040: 278e 03be ed12 823d 2d1b e93d 41f4 0a3e
00000050: c942 03bd bef3 2b3d 9e6a d43c a9a8 06be
00000060: c392 50bd 12f5 b73c 3426 303d a9de 54be
00000070: 5d56 f23d 1edf 3d3e ee4a 063e 6d7a 6abc
00000080: 9788 1cbe 2936 ff3a b942 013e b84a 6c3e
00000090: 61b6 bebd 9538 16be 84f5 c5bd f4bd af3c
000000a0: bcd2 ae3d 13b8 153d 6b0c 34bc 3926 463e
000000b0: 54e5 363e 9496 e63c 1b90 39bd bd08 0cbe
000000c0: a2ae 69bd 5418 ad3d d0bc 0fbe c030 abbd
000000d0: 537d 0f3e c98c e93d 7435 69bd 92e4 273e
000000e0: caa2 5c3e ef3d acbd 36d1 c53c 5670 d13d
000000f0: 403a 4a3e 21f7 fdbc 802b 2b3d 2b6b 2b3e
00000100: f29d d2bd e7a1 183d a5a0 523e f0f8 cebd
00000110: bcef e8bc f67a 9c3c 785c 73bc e8ed ac3e
00000120: f155 94bd 7f91 bfbd 0e19 123e 7a5a 6b3e
00000130: 42e5 4ebd 9585 063e 6ec3 683d 2422 813e
00000140: fb83 963c 20ab cebc 68ef 00be 0ea7 183d
00000150: c94b a0be 0b73 afbe 0ca4 fdbd 906b a0be
00000160: 542e 5bbe 0873 233c b233 97bd c023 e03c
00000170: 7edd 34be 6772 bebd bac4 de3c 3379 9f3d
00000180: ea29 b53d b928 59bd 1b2e aa3d 915b fdbc
00000190: e19b 4d3e 087d bd3d 2823 213c 77b3 8d3d
000001a0: 5379 763e 17e4 133d 861d 283e 905c be3d
000001b0: 5bd9 a9bd 9834 2fbd 503a 613d 89c5 7c3e
000001c0: efb4 703c 5bdd 343e 32d4 683e baa4 613e
000001d0: 9ead 11be d88c 7dbe c887 5abe fedd 83be
000001e0: 7a00 10be 5dfe 75be a566 68be caa2 f5bc
000001f0: 591a e53d afa4 433e df37 913e f99f 8f3d
00000200: 76bf 163e 8454 823d 9a83 36bd e537 a3bc
00000210: 0f5a 20be 8369 c6bd 2afc 15be b25a 303e
00000220: b37d 0abe 7f81 223d 1c78 843d 9b95 463e
00000230: 71d2 343e 6ec4 e3bd 9031 fcbb bd0c 0e3e
00000240: f579 bebd 4a1e b23d 496e a53c 9ad1 9e3d
00000250: 926c 023d 276a 813d 8699 30bc fa95 c03d
00000260: c688 293e 330c 09be a017 7bb9 8020 ed3d
00000270: 0fa8 973e a223 483e 74de 66bc f879 5abd
00000280: feb2 803c 5d67 343e 53af a93c ad18 9c3d
00000290: 84d7 53bd aff7 d7be a6fc aabe 5cb5 253e
000002a0: 3800 7fbd 5310 5fbe 8fc8 d13d 79dd 0b3d
000002b0: 4a5c 15bc 18fb 5bbe 2cb6 94be 3259 9dbe
000002c0: 3d56 903d e118 1d3d 32d8 a8bc 56c1 2ebd
000002d0: 45a2 233e 9ea9 b03a 8aa0 ffbc dd1e 07bc
000002e0: b668 7dbd 9973 933e a7eb 653e 7a49 573c
000002f0: 8a70 513e 4757 31bd cda1 553d 44eb e43a
00000300: 53d9 80bb 1941 5fbe 25a2 983c 8a3a 8ebe
00000310: 325b 7e3d 5f45 9abd bf6e 803d 61e8 52be
00000320: 482c 77bd fd90 0c3e a84e 61bd 7dad 48be
00000330: 64ba 8a3c d05d e1bd 9aad 7e3c 4a66 00be
00000340: 1350 c73d 7fd3 9a3d f28c 82bd 7160 92be
00000350: 568d f639 7993 0b3d 28d6 6d3e a845 d73d
00000360: fc6d 3a3d d10f 483e 8f04 cb3d c42b 8d3e
00000370: ef84 823d dae5 903d 1660 5abe 3f4b 743e
00000380: 8b33 f63d 3b76 07be 8e9d d4bd 30fc 07bd
00000390: 016b 993e 4f30 103e 6f78 373b de9b af3e
000003a0: 2a99 3c3c 6e3f fabd f545 3abe 8eff ae3d
000003b0: 15bc a8be 640f 89bd 7090 483d 0ed6 58bd
000003c0: 518c a5bd dfad 403c dcf0 b73d e319 343c
000003d0: 602e c63c 9db1 d6bd 1fcf d13d 67ac ed3d
000003e0: 95d7 3e3e 3708 0bbd e972 3b3d d2b2 a93e
000003f0: 4771 b13e 49f5 f53d 9152 3abd ea5c 113e

fc_1.bias f4 [10]
0.083858766 0.06309656 -0.053527687 -0.03979821 -0.10179293 0.084629305 -0.12530634 0.029640554
-0.0077421847 0.04654292
00000000: 25be ab3d c538 813d d93f 5bbd 7303 23bd
00000010: d078 d0bd 2152 ad3d 4e50 00be bfd0 f23c
00000020: 27b2 fdbb caa3 3e3d
